root@0dc9551408f5:/workspace/ISBI-2012/temp# python3 basic_unet.py 
{'train': 30, 'val': 30}
----------------------------------------------------------------
        Layer (type)               Output Shape         Param #
================================================================
            Conv2d-1         [-1, 64, 570, 570]             640
              ReLU-2         [-1, 64, 570, 570]               0
            Conv2d-3         [-1, 64, 568, 568]          36,928
              ReLU-4         [-1, 64, 568, 568]               0
         MaxPool2d-5         [-1, 64, 284, 284]               0
            Conv2d-6        [-1, 128, 282, 282]          73,856
              ReLU-7        [-1, 128, 282, 282]               0
            Conv2d-8        [-1, 128, 280, 280]         147,584
              ReLU-9        [-1, 128, 280, 280]               0
        MaxPool2d-10        [-1, 128, 140, 140]               0
           Conv2d-11        [-1, 256, 138, 138]         295,168
             ReLU-12        [-1, 256, 138, 138]               0
           Conv2d-13        [-1, 256, 136, 136]         590,080
             ReLU-14        [-1, 256, 136, 136]               0
        MaxPool2d-15          [-1, 256, 68, 68]               0
           Conv2d-16          [-1, 512, 66, 66]       1,180,160
             ReLU-17          [-1, 512, 66, 66]               0
           Conv2d-18          [-1, 512, 64, 64]       2,359,808
             ReLU-19          [-1, 512, 64, 64]               0
        MaxPool2d-20          [-1, 512, 32, 32]               0
           Conv2d-21         [-1, 1024, 30, 30]       4,719,616
             ReLU-22         [-1, 1024, 30, 30]               0
           Conv2d-23         [-1, 1024, 28, 28]       9,438,208
             ReLU-24         [-1, 1024, 28, 28]               0
          Dropout-25         [-1, 1024, 28, 28]               0
  ConvTranspose2d-26          [-1, 512, 56, 56]       2,097,664
           Conv2d-27          [-1, 512, 54, 54]       4,719,104
             ReLU-28          [-1, 512, 54, 54]               0
           Conv2d-29          [-1, 512, 52, 52]       2,359,808
             ReLU-30          [-1, 512, 52, 52]               0
  ConvTranspose2d-31        [-1, 256, 104, 104]         524,544
           Conv2d-32        [-1, 256, 102, 102]       1,179,904
             ReLU-33        [-1, 256, 102, 102]               0
           Conv2d-34        [-1, 256, 100, 100]         590,080
             ReLU-35        [-1, 256, 100, 100]               0
  ConvTranspose2d-36        [-1, 128, 200, 200]         131,200
           Conv2d-37        [-1, 128, 198, 198]         295,040
             ReLU-38        [-1, 128, 198, 198]               0
           Conv2d-39        [-1, 128, 196, 196]         147,584
             ReLU-40        [-1, 128, 196, 196]               0
  ConvTranspose2d-41         [-1, 64, 392, 392]          32,832
           Conv2d-42         [-1, 64, 390, 390]          73,792
             ReLU-43         [-1, 64, 390, 390]               0
           Conv2d-44         [-1, 64, 388, 388]          36,928
             ReLU-45         [-1, 64, 388, 388]               0
           Conv2d-46          [-1, 2, 388, 388]             130
================================================================
Total params: 31,030,658
Trainable params: 31,030,658
Non-trainable params: 0
----------------------------------------------------------------
Input size (MB): 1.25
Forward/backward pass size (MB): 1977.98
Params size (MB): 118.37
Estimated Total Size (MB): 2097.61
----------------------------------------------------------------
cuda:0
…
