root@d30ad04884ae:/workspace/ISBI-2012# python3 basic_unet.py 
(3, 576, 576, 3)
0 253
(3, 1, 576, 576)
0.0 1.0
{'train': 2000, 'val': 200}
torch.Size([5, 3, 576, 576]) torch.Size([5, 1, 576, 576])
0.0 1.0 0.4857632 0.16446374
0.0 1.0 0.2335575810185185 0.42309388717788954
----------------------------------------------------------------
        Layer (type)               Output Shape         Param #
================================================================
            Conv2d-1         [-1, 64, 576, 576]           1,792
              ReLU-2         [-1, 64, 576, 576]               0
            Conv2d-3         [-1, 64, 576, 576]          36,928
              ReLU-4         [-1, 64, 576, 576]               0
         MaxPool2d-5         [-1, 64, 288, 288]               0
            Conv2d-6        [-1, 128, 288, 288]          73,856
              ReLU-7        [-1, 128, 288, 288]               0
            Conv2d-8        [-1, 128, 288, 288]         147,584
              ReLU-9        [-1, 128, 288, 288]               0
        MaxPool2d-10        [-1, 128, 144, 144]               0
           Conv2d-11        [-1, 256, 144, 144]         295,168
             ReLU-12        [-1, 256, 144, 144]               0
           Conv2d-13        [-1, 256, 144, 144]         590,080
             ReLU-14        [-1, 256, 144, 144]               0
        MaxPool2d-15          [-1, 256, 72, 72]               0
           Conv2d-16          [-1, 512, 72, 72]       1,180,160
             ReLU-17          [-1, 512, 72, 72]               0
           Conv2d-18          [-1, 512, 72, 72]       2,359,808
             ReLU-19          [-1, 512, 72, 72]               0
         Upsample-20        [-1, 512, 144, 144]               0
           Conv2d-21        [-1, 256, 144, 144]       1,769,728
             ReLU-22        [-1, 256, 144, 144]               0
           Conv2d-23        [-1, 256, 144, 144]         590,080
             ReLU-24        [-1, 256, 144, 144]               0
         Upsample-25        [-1, 256, 288, 288]               0
           Conv2d-26        [-1, 128, 288, 288]         442,496
             ReLU-27        [-1, 128, 288, 288]               0
           Conv2d-28        [-1, 128, 288, 288]         147,584
             ReLU-29        [-1, 128, 288, 288]               0
         Upsample-30        [-1, 128, 576, 576]               0
           Conv2d-31         [-1, 64, 576, 576]         110,656
             ReLU-32         [-1, 64, 576, 576]               0
           Conv2d-33         [-1, 64, 576, 576]          36,928
             ReLU-34         [-1, 64, 576, 576]               0
           Conv2d-35          [-1, 1, 576, 576]              65
================================================================
Total params: 7,782,913
Trainable params: 7,782,913
Non-trainable params: 0
----------------------------------------------------------------
Input size (MB): 3.80
Forward/backward pass size (MB): 2989.41
Params size (MB): 29.69
Estimated Total Size (MB): 3022.89
----------------------------------------------------------------
cuda:0
…
